…
model.add(LSTM(32, activation='relu',
                       input_shape=(self.sw_width, self.features),return_sequences=True))
model.add(Dropout(0.3))
model.add(LSTM(32, activation='relu', return_sequences=True))
model.add(Dropout(0.3))
model.add(LSTM(16, activation='relu', return_sequences=True))
model.add(Dropout(0.3))
model.add(LSTM(8, activation='relu', return_sequences=False))
model.add(Dense(1))

_________________________________________________________________
Layer (type)                 Output Shape              Param #
=================================================================
lstm_1 (LSTM)                (None, 3, 32)             9600
_________________________________________________________________
dropout_1 (Dropout)          (None, 3, 32)             0
_________________________________________________________________
lstm_2 (LSTM)                (None, 3, 32)             8320
_________________________________________________________________
dropout_2 (Dropout)          (None, 3, 32)             0
_________________________________________________________________
lstm_3 (LSTM)                (None, 3, 16)             3136
_________________________________________________________________
dropout_3 (Dropout)          (None, 3, 16)             0
_________________________________________________________________
lstm_4 (LSTM)                (None, 8)                 800
_________________________________________________________________
dense_1 (Dense)              (None, 1)                 9
=================================================================
Total params: 21,865
Trainable params: 21,865
Non-trainable params: 0